ml/threat_model.pth (torch, 212309 bytes, 9 tensors)

lstm.weight_ih_l0 f4 [256, 7]
0	0x3e894b4c	0.2681526
1	0x3e4714ca	0.19441524
2	0x3eac47cf	0.33648536
3	0x3b6452e1	0.0034839439
4	0x3d892e16	0.06698243
5	0xbd99d684	-0.07511619
6	0x3e314066	0.17309722
7	0x3db0ff4e	0.086424455
8	0x3d43181b	0.04763041
9	0x3e289faa	0.16467157
10	0x3e16b936	0.1471909
11	0x3df5e7eb	0.120071255
12	0xbdaee04b	-0.08538874
13	0x3e700f38	0.23443305
14	0x3dba66f3	0.09101667
15	0x3d85cc69	0.06533129
16	0x3e609200	0.21930695
17	0x3e3c08c0	0.18362713
18	0x3e180b56	0.14848074
19	0x3e14c0db	0.14526694
20	0x3e95fdad	0.29295102
21	0x3e3a8783	0.18215756
22	0x3d93b71e	0.07212661
23	0x3e11e004	0.14245611
24	0x3de04952	0.10951485
25	0x3d83175c	0.0640094
26	0xbdae1b8a	-0.085013464
27	0xbef47177	-0.47742817
28	0x3f07ba4b	0.53018636
29	0x3ed9a955	0.42512003
30	0x3f09fde5	0.5390304
31	0x3e70d441	0.23518468
32	0x3e5bcba5	0.21464403
33	0x3e53fb6e	0.20701382
34	0x3ca502ff	0.02014303
35	0x3e1c38af	0.15255998
36	0x3e41c328	0.18922102
37	0x3d86b86b	0.06578144
38	0x3dececb8	0.11568588
39	0x3df5de11	0.120052464
40	0xbdaf2d5a	-0.08553572
41	0x3eabaacb	0.33528742
42	0x3e5f49c4	0.21805483
43	0x3d85ea15	0.06538788
44	0x3e3248fb	0.17410652
45	0x3e605f94	0.2191146
46	0x3dbe6f7c	0.09298608
47	0x3d03401a	0.032043554
48	0x3e185d31	0.148793
49	0x3e32bc0c	0.17454547
50	0x3a5a092a	0.00083174056
51	0x3e6acca7	0.22929631
52	0xbcc35298	-0.023843095
53	0xbd285b79	-0.04110286
54	0x3d879176	0.06619541
55	0x3e16aeca	0.14715114
56	0x3e8ab74f	0.27092978
57	0x3d9efe6e	0.07763372
58	0x3ea400fa	0.32031995
59	0x3e3d3def	0.18480657
60	0x3e437faf	0.19091676
61	0xbc8596bc	-0.016307227
62	0xbea2ce03	-0.317978
63	0x3e6225ad	0.22084685
64	0x3e8506ea	0.25981838
65	0x3e9c36f1	0.30510667
66	0x3dc47e48	0.09594399
67	0x3df14978	0.11781591
68	0x3d4e14b5	0.050312717
69	0x3eb89f19	0.36058882
70	0x3e7782e8	0.2417103
71	0x3e1ff4b6	0.15620694
72	0x3e94cfeb	0.2906488
73	0x3e38a8f4	0.180332
74	0x3e1c3cac	0.1525752
75	0x3c384a2c	0.011248153
76	0xbee518fc	-0.44745624
77	0x3e936d0d	0.28794137
78	0x3ee0355a	0.43790704
79	0x3e9bd783	0.3043786
80	0x3e2cb521	0.1686597
81	0x3dffb950	0.124865174
82	0x3dd77724	0.10520771
83	0x3e825f5d	0.2546338
84	0x3e6ae8ba	0.2294034
85	0x3c80d3be	0.015725967
86	0x3f111bcd	0.56683046
87	0xbc5572ae	-0.01302783
88	0xbdcb5c1e	-0.09929679
89	0xbe5624d9	-0.20912494
90	0xbed2efa2	-0.4119845
91	0x3f0ef316	0.5583967
92	0x3edeb36d	0.43496266
93	0x3f09ee0b	0.5387885
94	0x3e8624b5	0.2619988
95	0x3e129645	0.14315136
96	0x3e38a4f9	0.18031682
97	0xbc058940	-0.008150399
98	0x3d50124d	0.050798703
99	0x3dac7751	0.08421195
100	0x3e8df99f	0.27729508
101	0x3b88e846	0.00417808
102	0x3e411104	0.18854147
103	0xbd3d7605	-0.04625513
104	0x3e9a410f	0.3012776
105	0x3e9adfe8	0.30248952
106	0x3ea3f912	0.32025963
107	0x3eef898e	0.46784633
108	0x3e9b2854	0.30304205
109	0x3dfc168e	0.123089895
110	0x3e418845	0.18899639
111	0x3e645c71	0.22300889
112	0x3e14133f	0.14460467
113	0x3e4814d5	0.19539197
114	0x3ea9b498	0.33145595
115	0x3e902ab9	0.28157595
116	0x3e15b10f	0.14618324
117	0x3dc9f715	0.0986158
118	0x3e6bb746	0.23019132
119	0x3d5d2380	0.053988934
120	0x3e144258	0.14478433
121	0x3ea33cd7	0.31882355
122	0x3e15fe6e	0.14647838
123	0x3c58ce47	0.013232774
124	0xbdcd4dbb	-0.100245915
125	0x3e9203e3	0.2851859
126	0x3e8a0264	0.2695495
127	0x3e011680	0.1260624
128	0x3e8b2128	0.27173734
129	0x3dccad79	0.09994025
130	0x3d566176	0.05233904
131	0x3dff6d49	0.12472016
132	0x3eb6a03b	0.3566912
133	0x3ea79336	0.327295
134	0x3e069bab	0.1314532
135	0x3edb7d92	0.4286924
136	0x3e4dba64	0.20090634
137	0x3dbb60f7	0.09149354
138	0xbe04604b	-0.12927358
139	0x3d9ca642	0.07648899
140	0x3d9d0d7d	0.07668588
141	0x3e383549	0.17989077
142	0x3e4e39b0	0.20139194
143	0x3e308ce0	0.1724124
144	0x3bf37ccf	0.00743065
145	0x3e3d6c04	0.18498236
146	0x3ecb8a8d	0.39754143
147	0x3e5cfd60	0.2158103
148	0x3d95e631	0.07319296
149	0x3e1946e3	0.14968447
150	0x3dfd115b	0.12356826
151	0x3e11437c	0.141859
152	0x3d14f836	0.036369525
153	0xbf1a413d	-0.60255796
154	0x3ebab232	0.36464077
155	0x3ecae49f	0.3962755
156	0x3eef7204	0.46766675
157	0x3edc0898	0.42975307
158	0x3ea3fdb5	0.320295
159	0x3eb59166	0.35462493
160	0xbcc56ffe	-0.024101254
161	0x3e6116ca	0.2198135
162	0x3ea5a63d	0.32353392
163	0x3ecaa9bc	0.39582622
164	0x3e734799	0.23757781
165	0x3e1fc851	0.15603758
166	0x3dcf6ead	0.101285316
167	0x3e7596b8	0.23983276
168	0x3ebce101	0.36890414
169	0x3e7da8d1	0.2477143
170	0x3e8e934b	0.2784675
171	0x3e9c4941	0.30524638
172	0x3c498fd7	0.0123023605
173	0x3d9eb706	0.07749753
174	0x3dd5bc8e	0.104363546
175	0x3e386e8e	0.18010923
176	0x3d7d7a76	0.061884366
177	0x3e6e57cc	0.2327568
178	0x3da3aa6a	0.07991488
179	0x3e0185c6	0.12648687
180	0x3e7f5fdd	0.24938913
181	0x3eb525d3	0.3538042
182	0x3e087333	0.13325195
183	0x3e7c790b	0.24655549
184	0x3ea3af43	0.31969652
185	0x3e272e27	0.163262
186	0x3caa9518	0.020823047
187	0x3c22030a	0.00988842
188	0x3e8451b8	0.25843596
189	0x3ec8787c	0.39154422
190	0x3ea0b3f2	0.31387287
191	0x3ef661de	0.48121542
192	0x3e776c15	0.24162324
193	0x3e6dd776	0.23226723
194	0x3b791dec	0.003801222
195	0x3dd78ae6	0.1052454
196	0x3ea867c5	0.3289167
197	0x3eaf9d89	0.34299877
198	0x3e91f87a	0.28509885
199	0xbd72d122	-0.059281476
200	0x3b9c8413	0.0047764867
201	0xbd539e68	-0.05166474
202	0x3dcc8967	0.09987145
203	0x3e1d9195	0.15387566
204	0x3e45f0a2	0.19330075
205	0x3e9d8c55	0.30771127
206	0x3e0c03e7	0.13673364
207	0x3a5b24ba	0.00083596597
208	0xbde8843b	-0.11353346
209	0xbec9220d	-0.3928379
210	0x3e9c0a86	0.3047678
211	0x3ebb303a	0.3656023
212	0x3e0fbacf	0.14036106
213	0x3cafd331	0.021463009
214	0x3e82749e	0.25479597
215	0x3e0d5888	0.13803303
216	0x3eace5fa	0.33769208
217	0x3ef044fe	0.46927637
218	0x3eb4d652	0.35319763
219	0x3e8e0b24	0.27742875
220	0x3e863cc3	0.26218233
221	0x3e919fac	0.28442132
222	0x3da9a9fa	0.082843736
223	0xbd977ea8	-0.07397205
224	0x3ebfbc13	0.37448177
225	0x3ebcc8b8	0.36871886
226	0x3f37bcef	0.71772665
227	0x3ea9d800	0.33172607
228	0x3e83a7af	0.2571387
229	0x3e5f2c79	0.21794309
230	0x3d824693	0.06361117
231	0x3e6cf35c	0.23139709
232	0x3e53ad04	0.20671469
233	0x3e4f92af	0.20270799
234	0x3e41c121	0.18921329
235	0x3d8c4f06	0.0685101
236	0x3ddb3f9b	0.10705491
237	0xbe86037f	-0.26174542
238	0x3e833fb2	0.25634533
239	0x3eaeb7d1	0.34124616
240	0x3e563cde	0.20921656
241	0x3eb1f95a	0.34760553
242	0x3e18ba82	0.14914897
243	0x3ddd452f	0.10804211
244	0x3eacf39e	0.33779615
245	0x3e847c54	0.25876105
246	0x3db6cf7d	0.08926294
247	0x3f1f77f9	0.6229244
248	0x3dc7dabf	0.097585194
249	0xbc71ec52	-0.014765816
250	0xbde5b389	-0.11215884
251	0x3db09aa4	0.08623245
252	0x3e66a6af	0.22524522
253	0x3def0d80	0.11672497
254	0x3ec49ed5	0.3840243
255	0x3dbb5fe0	0.09149146

lstm.weight_hh_l0 f4 [256, 64]
0	0xbd8fed50	-0.07027686
1	0xbd1638fc	-0.03667544
2	0xbdc0f222	-0.09421183
3	0xbcd29f30	-0.025710672
4	0x3c938160	0.018006027
5	0x3d9f220a	0.07770164
6	0x3db21e5a	0.08697195
7	0x3d841e96	0.06451146
8	0xbdd1769c	-0.10227701
9	0x3c03e920	0.008051187
10	0xbdc9e142	-0.09857418
11	0x3de9f8fc	0.11424443
12	0x3da83644	0.08213475
13	0x3dc31360	0.0952518
14	0xbd63f080	-0.05564928
15	0xbdcc71a6	-0.09982614
16	0x3dcf1958	0.10112256
17	0x3d81fcf8	0.06347078
18	0x3df15612	0.11783995
19	0x3d4d603c	0.050140604
20	0x3df522bc	0.11969516
21	0x3d25a510	0.04044062
22	0x3d83b5fc	0.06431195
23	0x3d34d824	0.04415144
24	0x3d93e648	0.07221657
25	0x3af5c480	0.0018750578
26	0x3d7ec758	0.062201828
27	0x3df6433c	0.12024543
28	0xbd0346b8	-0.032049865
29	0xbdc82838	-0.09773296
30	0xbb35b800	-0.002772808
31	0x3d3c9700	0.046042442
32	0x3d4d20e4	0.050080195
33	0xbd3f710c	-0.04673867
34	0x3dd9255e	0.1060283
35	0x3d7b8b68	0.061412245
36	0x3da28e24	0.079372674
37	0xbd97604e	-0.073914155
38	0x3d739cf0	0.05947584
39	0xbdc51fca	-0.09625204
40	0x3ca7f250	0.020501286
41	0x3dae8f4e	0.08523427
42	0xbda4f8a4	-0.08055237
43	0x3ca6cac0	0.02036035
44	0x3d10b83c	0.03533195
45	0x3a43d200	0.0007469952
46	0xbdfa7d50	-0.12230933
47	0xbd2f23ac	-0.04275863
48	0xbdf01d84	-0.1172438
49	0x3de080fe	0.10962103
50	0x3d9b9ad0	0.075978875
51	0xbdbce232	-0.09222831
52	0xbd05fad4	-0.03270991
53	0xbdf78e9e	-0.12087749
54	0x3d99a5de	0.0750234
55	0x3dbf4b42	0.09340526
56	0xbc8f1f38	-0.017470941
57	0xbdc0b9b8	-0.09410423
58	0xbddf1806	-0.10893254
59	0xbce99048	-0.028511181
60	0x3d883adc	0.066518515
61	0xbbd0ee40	-0.006376058
62	0xbcf327f8	-0.029682145
63	0x3cc5fef0	0.024169415
64	0x3deb7f8c	0.11498937
65	0x3dfa1338	0.12210697
66	0xbd33a9fc	-0.04386328
67	0x3cf60418	0.030031249
68	0xbdad8a96	-0.08473699
69	0xbd5bf00c	-0.053695723
70	0x3db51f5e	0.088438734
71	0x3d0abe34	0.033872798
72	0x3da9b376	0.082861826
73	0xbc4b5080	-0.012409329
74	0xbd24477c	-0.040107235
75	0xbaa63a00	-0.001268208
76	0x3c948438	0.018129453
77	0x3cf8f9b8	0.030392513
78	0xbd9f6a52	-0.07783951
79	0x3deec784	0.11659148
80	0xbd20a3bc	-0.03921865
81	0x3cfc84c0	0.030825019
82	0x3cf9d758	0.030498192
83	0x3daa3cee	0.08312403
84	0xbb3e7780	-0.0029062927
85	0xbd6f4674	-0.0584168
86	0x3d5d69a4	0.054055825
87	0xbdd5f0e6	-0.10446338
88	0xbabf5d00	-0.001459986
89	0xbd43603c	-0.047699198
90	0x3db81852	0.08989014
91	0xbdf5270c	-0.11970338
92	0x3c081d90	0.0083078295
93	0x3d127324	0.035754338
94	0xbd759df0	-0.059965074
95	0xbc9721d8	-0.018448755
96	0xbda97102	-0.08273508
97	0x3dc2d1ea	0.09512694
98	0xbdc59e8e	-0.096493825
99	0x3dc0ac30	0.09407842
100	0x3d588c48	0.052868158
101	0xbd6fb9e8	-0.058526903
102	0xbd17f624	-0.037099972
103	0xbda89b26	-0.08232717
104	0xbd3edefc	-0.046599373
105	0x3dc2cf50	0.09512198
106	0xbc386ab0	-0.011255905
107	0x3c6819a0	0.014166266
108	0x3d8d8a74	0.069111735
109	0xbd568380	-0.052371502
110	0x3d46c19c	0.048524484
111	0xbdaf0502	-0.08545877
112	0x3cb0d3d0	0.021585375
113	0x3b8a5de0	0.0042226166
114	0xbdeb8136	-0.114992544
115	0x3c60cb20	0.013720304
116	0x3dcd2654	0.10017076
117	0xbdb560f4	-0.08856383
118	0xbddc67a0	-0.107619524
119	0xbd8c2a50	-0.06844008
120	0xbc0d0d00	-0.0086090565
121	0xbdee5e00	-0.11639023
122	0x3d9a1c22	0.07524897
123	0x3dab61c2	0.08368255
124	0xbdef583c	-0.11686751
125	0x3b250400	0.0025179386
126	0x3ca486e8	0.02008386
127	0xbc38dcd0	-0.011283115
128	0xbdc62f9a	-0.09677048
129	0x3ca53ec0	0.020171523
130	0x3cb0f740	0.021602273
131	0x3d7686a0	0.060186982
132	0x3cb848e0	0.022495687
133	0xbd2b4d98	-0.041822046
134	0x3de6e45a	0.11274023
135	0xbc34a480	-0.011025548
136	0x3d3d9c1c	0.046291456
137	0xbd50753c	-0.050893053
138	0xbdc0106e	-0.09378134
139	0x3d234efc	0.039870247
140	0xbcf198e8	-0.029491857
141	0x3d09eb5c	0.03367172
142	0x398c5800	0.00026768446
143	0x3d3ebd60	0.04656732
144	0xbde4744e	-0.11154996
145	0xbb8054a0	-0.003916338
146	0x3cf9df18	0.030501887
147	0x3d55da48	0.052210122
148	0xbdea9c9a	-0.11455651
149	0xbc2923a0	-0.010323435
150	0x3dcb8662	0.09937741
151	0xbd8c62d2	-0.06854786
152	0x3defa046	0.117004916
153	0x3dad1da2	0.08452918
154	0x3d681660	0.056661963
155	0xbdc7aa52	-0.09749283
156	0x3af88a80	0.0018962175
157	0xbdf4e032	-0.11956824
158	0x3c9ad150	0.018898636
159	0x3dd862b0	0.10565698
160	0xbdd9ea04	-0.10640338
161	0xbd1bbb80	-0.03802061
162	0xbd82645e	-0.063668
163	0xbc22e4c0	-0.009942234
164	0xbdfd9712	-0.1238233
165	0xbd666848	-0.056251794
166	0x3d4c317c	0.04985188
167	0xbdc295c0	-0.09501219
168	0xbdc25d6e	-0.094904765
169	0xbd7d4a34	-0.061838344
170	0x3d2f24e0	0.042759776
171	0xbce944e0	-0.028475225
172	0x3db5adfe	0.08871077
173	0xbd31ef5c	-0.04344116
174	0xbdb5acce	-0.088708505
175	0x3d230fcc	0.039809987
176	0xbd15610c	-0.036469504
177	0x3c10d130	0.008838937
178	0xbd71665c	-0.058935508
179	0x3c7c5be0	0.015402764
180	0x3da7d0bc	0.0819411
181	0xbce74e68	-0.02823563
182	0xbb7a6400	-0.0038206577
183	0x3cef51b8	0.029213771
184	0xbd995d42	-0.07488491
185	0xbdcb5756	-0.099287674
186	0xbdc7a4cc	-0.097482294
187	0xbd2a05ac	-0.041509315
188	0xbdc65e2c	-0.096859306
189	0x3dad37a6	0.0845788
190	0xbcbe4e28	-0.023230627
191	0xbbe365e0	-0.0069396347
192	0x3de5965e	0.11210321
193	0x3d593c2c	0.0530359
194	0x3dccb22c	0.09994921
195	0xbd4b00a0	-0.049561143
196	0xbdb47d1e	-0.08812927
197	0xbd9e4a88	-0.077290595
198	0xbc78c3f0	-0.015183434
199	0x3df8de74	0.121518046
200	0x3d716578	0.05893466
201	0x3d8eab98	0.06966323
202	0x3c9c55a0	0.019083798
203	0x3d8a4e58	0.06753224
204	0x3dab0202	0.08349992
205	0x3d2957a4	0.041343346
206	0xbd948c08	-0.07253271
207	0xbcf012f8	-0.02930592
208	0xbdd8c594	-0.1058456
209	0x3d6c492c	0.05768697
210	0xbdc568f0	-0.09639156
211	0xbc865fc0	-0.016403079
212	0x3b40ea00	0.002943635
213	0x3dbfa36c	0.09357342
214	0xbd2bffec	-0.041992113
215	0x3dabb9ca	0.08385046
216	0xbd93f1f2	-0.07223882
217	0xbd184b1c	-0.037181005
218	0x3d921582	0.071330085
219	0x3da51168	0.080599606
220	0x3d8d049c	0.06885645
221	0x3dd0f7da	0.10203524
222	0xbdf64f36	-0.12026827
223	0xbd16376c	-0.03667395
224	0x3de8f924	0.11375645
225	0xbd9e3bd4	-0.07726255
226	0x3d156048	0.036468774
227	0xbdbc5df2	-0.09197606
228	0xbddf4178	-0.10901159
229	0x3ad2d880	0.001608625
230	0xbcb21f08	-0.021743312
231	0xbda46c10	-0.08028424
232	0x3d85b5c6	0.06528811
233	0xbb06e680	-0.0020584166
234	0xbd150d30	-0.03638953
235	0xbdbf51fe	-0.09341811
236	0xbd7f4678	-0.062323064
237	0xbdbceccc	-0.09224853
238	0x3bedfd40	0.007262856
239	0xbd9ab978	-0.075549066
240	0xbdd8c28c	-0.10583982
241	0xbd1922ac	-0.03738658
242	0x3ddd9ba8	0.10820705
243	0x3caabcc8	0.020841971
244	0x3c932548	0.017962113
245	0x3dd51124	0.1040366
246	0xbcd57618	-0.026057288
247	0xbc1764e0	-0.009240359
248	0xbda7fa1a	-0.08202
249	0xbcfd7a10	-0.030941993
250	0xbd06ad3c	-0.032880053
251	0xbd7bc5f4	-0.06146808
252	0x3da4204a	0.08013971
253	0x3deb8cfa	0.115014985
254	0xbda68922	-0.08131625
255	0xbd955006	-0.07290654

lstm.bias_ih_l0 f4 [256]
0	0x3e59a5bf	0.21254633
1	0x3de2d289	0.11075313
2	0x3bf3f962	0.0074455
3	0x3e83167b	0.2560309
4	0x3efbeb3a	0.492029
5	0xbc1f3ced	-0.009719116
6	0x3db31ab3	0.08745327
7	0x3e467111	0.19379069
8	0x3e9d1095	0.30676714
9	0x3e01c9a1	0.12674572
10	0x3e655ef0	0.22399497
11	0x3ee1e03e	0.44116396
12	0x3e7fcd9a	0.24980775
13	0x3f19016b	0.5976779
14	0x3e45923c	0.19294065
15	0x3e9e7243	0.3094655
16	0x3e712dde	0.23552653
17	0x3d762afe	0.060099594
18	0x3db97971	0.09056366
19	0x3ec2e8c0	0.380682
20	0x3e3e8267	0.18604432
21	0x3e276a2c	0.16349095
22	0x3ebc12dd	0.36733142
23	0x3e58d4d6	0.2117494
24	0x3e0c55e8	0.13704646
25	0x3e885758	0.26629138
26	0x3e56ef8e	0.2098982
27	0x3ece64b6	0.4031121
28	0x3e5f5500	0.21809769
29	0x3e8a8fea	0.27062923
30	0x3e3dfd58	0.18553674
31	0x3efabc81	0.48971942
32	0x3eebe812	0.46075493
33	0x3ea86766	0.32891387
34	0x3e67c0ce	0.22632143
35	0x3e52ef07	0.20598994
36	0x3d9b3543	0.07578518
37	0x3cc3d1e5	0.023903796
38	0x3e6ae34e	0.22938272
39	0x3ec65168	0.38733983
40	0x3e53c051	0.20678832
41	0x3e431604	0.19051367
42	0x3ea28923	0.31745252
43	0x3e7be685	0.24599655
44	0x3ecd3959	0.40082815
45	0x3e206647	0.15664016
46	0x3e1f5e39	0.15563287
47	0x3e76a62d	0.24086829
48	0x3eae75ed	0.34074345
49	0x3e384ff8	0.17999256
50	0x3d2edbca	0.042690076
51	0x3e4c12d1	0.19929053
52	0x3ef4530c	0.4771961
53	0x3e954b01	0.29158786
54	0x3d1a8b0a	0.037730254
55	0x3ec03f19	0.3754814
56	0x3ea2b662	0.31779772
57	0x3d59c4d9	0.053166244
58	0x3eb64b04	0.35604107
59	0x3e19a2fc	0.1500358
60	0x3ea13562	0.3148604
61	0x3e9dd5f2	0.3082729
62	0x3ef4b914	0.47797453
63	0x3e5a3643	0.21309762
64	0x3c186e30	0.0093036145
65	0x3da7436c	0.081671566
66	0xbca0b190	-0.019615918
67	0x3df280c4	0.11840966
68	0xbbfe8c60	-0.007768199
69	0x3c939a50	0.018017918
70	0xba81c800	-0.0009901524
71	0x3ba074a0	0.0048967153
72	0x3d131c88	0.03591588
73	0xbd4da510	-0.050206244
74	0xbd031ba8	-0.032008797
75	0x3c666c10	0.01406385
76	0xbcb3cd88	-0.02194859
77	0xbda6db02	-0.08147241
78	0xbdda8edc	-0.106717795
79	0x3dc85efa	0.0978374
80	0x3da3f616	0.080059215
81	0x3c32c4e0	0.0109111965
82	0x3c5c33b0	0.013440058
83	0x3c99a8e8	0.018757299
84	0xbd48d1bc	-0.049028143
85	0xbd3fa01c	-0.04678355
86	0x3db7765e	0.089581236
87	0xbdcb6710	-0.09931767
88	0x3dd162f6	0.102239534
89	0x3d5dd034	0.054153636
90	0x3dba03b4	0.090827376
91	0xbdc41856	-0.09574954
92	0xbd3685a8	-0.04456106
93	0x3d0136d4	0.03154643
94	0xbd65fa20	-0.05614674
95	0xbd8fcc38	-0.070213735
96	0x3cb07fe8	0.021545365
97	0xbda237e0	-0.079208136
98	0xbb3c4e40	-0.0028733164
99	0x3d495a30	0.049158275
100	0xbd3f0018	-0.04663095
101	0xbd9c0bfc	-0.07619473
102	0x3c8bdea8	0.017073944
103	0xbb977960	-0.0046226233
104	0xbdf7fdba	-0.121089414
105	0xbda291aa	-0.079379395
106	0xbd664c80	-0.0562253
107	0xbdec2c66	-0.11531906
108	0xbcb3e640	-0.021960378
109	0x3d1b5b38	0.03792879
110	0xbd72136c	-0.059100553
111	0xbbbc3920	-0.0057441145
112	0x3dc23fde	0.09484838
113	0x3d846820	0.06465173
114	0xbd55c27c	-0.052187428
115	0xbd71e864	-0.059059516
116	0x3deb9f44	0.11504987
117	0xbc60df20	-0.013725072
118	0x3ded2cf4	0.1158084
119	0x3d52b550	0.051442444
120	0x3d9fd03e	0.07803391
121	0x3de581f2	0.11206426
122	0xbddce682	-0.107861534
123	0x3d1566e8	0.036475092
124	0xbdccd9e8	-0.100025
125	0xbdaa36d6	-0.083112404
126	0xbdd7edfe	-0.1054344
127	0x3d996480	0.07489872
128	0x3d5adbf8	0.053432435
129	0x3d1a66ca	0.037695684
130	0xbdf0fb16	-0.11766641
131	0xbca485fb	-0.020083418
132	0xbce6c805	-0.028171549
133	0xbdcf2dd8	-0.10116166
134	0x3d1efa2c	0.0388128
135	0xbdc70603	-0.097179435
136	0x3dfca3ce	0.12335931
137	0x3ab87eaf	0.0014075841
138	0xbdf6037b	-0.120123826
139	0xbd1d0f66	-0.038344763
140	0x3d31a4a3	0.0433699
141	0x3c8e6a65	0.017384717
142	0x3d5a216e	0.053254537
143	0x3ba35b9e	0.004985287
144	0x3d26db4a	0.040736474
145	0xbde87f26	-0.11352377
146	0xbc86dc24	-0.016462393
147	0xbe00b270	-0.12568069
148	0xbcf3e955	-0.029774347
149	0xbe07a11b	-0.1324505
150	0xbdd2ce62	-0.10293271
151	0xbd6b44a4	-0.057438508
152	0xbd93c63e	-0.07215546
153	0x3c9274f4	0.017878033
154	0xbdc7e075	-0.09759609
155	0x3e2aee46	0.16692457
156	0x3dc800e4	0.09765795
157	0xbe21b967	-0.15793382
158	0xbd0b050b	-0.033940356
159	0xbc52d5df	-0.012868374
160	0x3c38c8f7	0.0112783825
161	0x3d792c27	0.060833123
162	0xbd1b411f	-0.0379039
163	0xbdbc6138	-0.091982305
164	0x3da418e8	0.08012563
165	0x3deaec88	0.11470896
166	0x3dba1dc3	0.09087708
167	0xbd948e73	-0.072537325
168	0x3d5eb78a	0.054374255
169	0x3d8f9bec	0.070121616
170	0x3d25a4a4	0.040440217
171	0xbcf17865	-0.029476354
172	0x3dac61ac	0.08417067
173	0x39259070	0.00015789433
174	0xbdc2904b	-0.09500178
175	0x3da7e7aa	0.08198483
176	0x3dd5d6ed	0.104413845
177	0x3e5f2a59	0.21793498
178	0xbdd26ade	-0.102742895
179	0x3e1bc792	0.15212849
180	0x3c41df07	0.011832959
181	0xbcdf1038	-0.027229413
182	0x3d65a829	0.056068573
183	0xba2cd02f	-0.0006592301
184	0x3c91fb7e	0.017820116
185	0xbc7cab60	-0.015421718
186	0x3c3e82b2	0.01162784
187	0xbd364f96	-0.044509493
188	0x3d89d62e	0.06730305
189	0xbdc83d04	-0.09777263
190	0xbce3e837	-0.02782069
191	0xbe0c4988	-0.13699925
192	0x3e6757bc	0.22592062
193	0x3c37cf43	0.011218849
194	0x3e02c9aa	0.12772241
195	0x3e9595c7	0.29215834
196	0x3f10b387	0.56523937
197	0x3e3ac27f	0.18238257
198	0x3dd3e23f	0.103458874
199	0x3e1c72e3	0.15278201
200	0x3e98ea2d	0.29866162
201	0x3dd33a40	0.10313845
202	0x3e8bfc1d	0.27340785
203	0x3e856d7d	0.26060095
204	0x3e59c486	0.21266374
205	0x3f176605	0.59140044
206	0x3d5a8943	0.05335356
207	0x3ecd037e	0.40041727
208	0x3e414a0d	0.18875904
209	0x3dbf5f95	0.09344403
210	0x3e5846f0	0.2112081
211	0x3e8d4752	0.27593476
212	0x3e10d1fa	0.141426
213	0x3e60a09a	0.21936265
214	0x3f04fcd3	0.5194828
215	0x3ec56389	0.38552502
216	0x3e800084	0.25000393
217	0x3dcc095b	0.09962722
218	0x3ea196e1	0.31560424
219	0x3e9887bc	0.29791057
220	0x3e72fad8	0.23728502
221	0x3d7ad1a0	0.06123507
222	0x3e9a1ed0	0.30101633
223	0x3eea2592	0.4573179
224	0x3ec4dd76	0.3845021
225	0x3ea0b19c	0.31385505
226	0x3ede69e1	0.43440154
227	0x3ea270b6	0.31726617
228	0x3e998cae	0.29990143
229	0x3e14d642	0.14534858
230	0x3e487c8a	0.19578758
231	0x3e55bda6	0.20873126
232	0x3d52f7f5	0.051506
233	0x3e7fe7f8	0.24990833
234	0x3e0194f8	0.12654483
235	0x3e941bfa	0.28927594
236	0x3ebdf6a4	0.37102234
237	0xbc02e09a	-0.0079881195
238	0x3d61eee3	0.05515946
239	0x3eb19a6a	0.3468812
240	0x3e7851f7	0.24250017
241	0x3dd7bd3b	0.1053414
242	0x3e8f93de	0.280425
243	0x3dd460ef	0.10370051
244	0x3f06cf07	0.5265965
245	0x3e76dd9b	0.24107973
246	0xbb2ab468	-0.0026047472
247	0x3e85d0db	0.26135907
248	0x3e6d70f0	0.23187613
249	0x3e40ef68	0.18841326
250	0x3eb65f25	0.35619465
251	0x3e8f36a9	0.2797139
252	0x3da4f92d	0.08055339
253	0x3e874319	0.2641838
254	0x3ee48226	0.44630545
255	0x3eae7546	0.34073848

lstm.bias_hh_l0 f4 [256]
0	0x3e4582cb	0.19288175
1	0x3e1662a0	0.1468606
2	0x3e784868	0.24246371
3	0x3e8e72bc	0.2782191
4	0x3ece2a98	0.4026687
5	0xbc9d310f	-0.019188432
6	0x3e934035	0.28759924
7	0x3e229ad1	0.1587937
8	0x3dddb516	0.10825555
9	0x3db960e4	0.090516835
10	0x3e596a52	0.21231964
11	0x3ecf878f	0.4053311
12	0x3e0cfe04	0.13768774
13	0x3eccb553	0.3998209
14	0x3e376b06	0.1791192
15	0x3eea7560	0.45792675
16	0x3e52ba42	0.20578864
17	0xbc374e3a	-0.011188084
18	0x3d099544	0.033589616
19	0x3ea364de	0.31912893
20	0x3df27c4e	0.118401155
21	0x3dc8a7d5	0.097976364
22	0x3ecbcf1f	0.39806458
23	0x3eb04cda	0.34433633
24	0x3e10268d	0.14077206
25	0x3e3535fe	0.17696378
26	0x3e5a1ca4	0.21299988
27	0x3e838485	0.25687042
28	0x3eb3ba5a	0.35103112
29	0x3e90ba90	0.28267336
30	0x3ea7d731	0.32781366
31	0x3e883cac	0.2660879
32	0x3efcbbe7	0.49362108
33	0x3e96e490	0.29471254
34	0x3eba4ed8	0.36388278
35	0x3e70375e	0.23458621
36	0x3e376945	0.17911251
37	0x3e431f6d	0.19054957
38	0x3ebe7943	0.3720189
39	0x3e1ab873	0.15109424
40	0x3c326ef1	0.010890708
41	0x3e2cd5ca	0.16878429
42	0x3e9072e5	0.28212658
43	0x3ec73c75	0.38913313
44	0x3ed09fd7	0.40746948
45	0xba7cf1cd	-0.0009649068
46	0xbc198252	-0.00936945
47	0x3e8366d7	0.25664398
48	0x3e2923ef	0.16517614
49	0x3e3017fb	0.17196648
50	0x3e6de3ce	0.23231432
51	0x3e0204a3	0.12697081
52	0x3f1fdeed	0.6244953
53	0x3e234977	0.15945993
54	0x3da44edb	0.08022853
55	0x3ea26f6f	0.31725642
56	0x3e853629	0.26017883
57	0x3d8ae927	0.067827515
58	0x3ede7b7a	0.4345358
59	0x3e66e532	0.22548369
60	0x3e899654	0.26872504
61	0x3e8076fd	0.2509078
62	0x3eec7a1c	0.46186912
63	0x3e98cde6	0.29844588
64	0xbde2e312	-0.110784665
65	0xbdf14f58	-0.11782712
66	0x3d8d8e7e	0.06911944
67	0xbdd05af0	-0.10173595
68	0x3de47d60	0.11156726
69	0xb9b61800	-0.00034731627
70	0x3db3a3cc	0.08771476
71	0xbdf05618	-0.11735171
72	0x3d3aebe8	0.045635134
73	0x3da27dec	0.07934174
74	0x3d5f605c	0.054535255
75	0x3b94e600	0.0045440197
76	0xbca7f128	-0.020500734
77	0xbd9001de	-0.07031606
78	0x3d892236	0.06695978
79	0x3d8dc89a	0.06923027
80	0x3d809956	0.062792465
81	0xbd0b81e8	-0.034059435
82	0xbd43f7f0	-0.047843874
83	0xbdced078	-0.10098356
84	0x3d84309e	0.064545855
85	0x3d8e90b6	0.06961195
86	0x3d12ca28	0.035837322
87	0x3cf52650	0.029925495
88	0x3db2fbf4	0.087394625
89	0x3d9cf304	0.07663539
90	0xbd7418ac	-0.05959384
91	0xbde0642e	-0.10956608
92	0x3de9a9ae	0.11409317
93	0xbd871092	-0.065949574
94	0xbc5ca1a0	-0.013466269
95	0x3dcb3ed8	0.09924096
96	0xbdc750a6	-0.09732179
97	0x3dc8d1f8	0.09805673
98	0xbcec1320	-0.028817713
99	0x3ac81280	0.0015264302
100	0x3da360f6	0.07977478
101	0x3cdf0b68	0.027227119
102	0xbdb5afc2	-0.08871414
103	0x3d85296c	0.06502041
104	0x3d235da8	0.03988424
105	0x3d8f100a	0.06985481
106	0xbdaf89f6	-0.08571236
107	0x3dd699da	0.104785636
108	0xbde9f0b8	-0.114228666
109	0xbc94a8b0	-0.018146843
110	0x3cd44518	0.025911853
111	0xbde9111e	-0.11380218
112	0xbbac7ec0	-0.005264133
113	0xbdedca2c	-0.11610827
114	0xbdfb1436	-0.12259714
115	0xbd83834e	-0.06421529
116	0x3d9b8fdc	0.075957984
117	0xbc3313a0	-0.010929972
118	0xbdc3ca32	-0.0956005
119	0x3cc18d80	0.023627043
120	0xbdb7c620	-0.08973336
121	0xbdd49ca0	-0.10381436
122	0x3cd57840	0.026058316
123	0xbc4dca00	-0.012560368
124	0xbcb08e38	-0.02155219
125	0xbdc52cd6	-0.096276924
126	0x3d94296c	0.07234463
127	0x3dd82f54	0.10555902
128	0xbcd64405	-0.026155481
129	0x3c43abe5	0.011942838
130	0x3d8d6372	0.06903733
131	0xbe347b0f	-0.17625068
132	0x3d40a735	0.04703446
133	0x3cc12bef	0.02358052
134	0x3ac8de37	0.0015325014
135	0xbdbb0a13	-0.09132781
136	0x3dfb40f5	0.12268249
137	0x3d8b6a4a	0.068073824
138	0xbd2a45b3	-0.041570377
139	0xbd294a74	-0.04133077
140	0x3e245f0a	0.1605188
141	0xbe09f8bb	-0.1347379
142	0xbd4936cd	-0.049124528
143	0x3d8583f1	0.065193065
144	0xbd8909cc	-0.06691322
145	0xbdf55695	-0.11979405
146	0x3c8715a3	0.01648981
147	0xbdcd4aad	-0.10024009
148	0x3d55ef99	0.05223045
149	0xbe0d71d1	-0.13812949
150	0xbe0a472e	-0.13503715
151	0xbdca8c2c	-0.09890017
152	0xbd323571	-0.043507997
153	0x3d2e6b79	0.042582963
154	0x3cf94140	0.030426621
155	0x39f67c91	0.00047013586
156	0xbd7f845b	-0.062382083
157	0xbe0eb117	-0.13934742
158	0x3c85e872	0.01634619
159	0xbd653713	-0.055960726
160	0x3cfd6b67	0.030935002
161	0xbe125a06	-0.14292154
162	0x3ddb93e4	0.10721567
163	0xbe2837ff	-0.16427611
164	0xbd1d2dde	-0.03837382
165	0xbc9790dc	-0.018501692
166	0xbba0e92c	-0.0049106088
167	0x3bbead1e	0.005818977
168	0xbe03f5eb	-0.12886779
169	0x3e1446e0	0.14480162
170	0xbdb6c620	-0.08924508
171	0xbc96ec17	-0.018423123
172	0x3c12fec5	0.008971875
173	0x3cfe84b6	0.03106914
174	0xbcabe525	-0.020983288
175	0x3cc82bf4	0.024435021
176	0x3ddd393b	0.108019315
177	0x3e1f43a4	0.15553147
178	0xbda3fb19	-0.080068775
179	0x3e3f9bc9	0.18711771
180	0xbdecd8dc	-0.115648
181	0xbda3bd9e	-0.07995151
182	0x3d58c8d5	0.052925903
183	0x3dea57ba	0.11442514
184	0x3dee7901	0.116441734
185	0x3e36852c	0.17824239
186	0x3d9c0d90	0.07619774
187	0x3dd8aed6	0.10580222
188	0xbddacc4a	-0.10683496
189	0xbb761477	-0.003754882
190	0xbdf31b5b	-0.11870452
191	0xbd160f3a	-0.036635615
192	0x3e3ecf41	0.18633749
193	0x3e1b395d	0.15158601
194	0x3e267edc	0.1625933
195	0x3e2a7ce8	0.1664921
196	0x3f0190bc	0.5061147
197	0x3df112df	0.117711775
198	0x3d845b8d	0.064627744
199	0x3e0506f4	0.12990934
200	0x3e1a285a	0.15054455
201	0x3dd274fa	0.10276218
202	0x3df01833	0.11723366
203	0x3ec74a3d	0.38923827
204	0x3e158e94	0.1460517
205	0x3f0eefde	0.5583476
206	0x3e41907f	0.18902777
207	0x3ea84a67	0.32869264
208	0x3e261ec4	0.16222674
209	0x3e33277e	0.17495534
210	0x3e320e66	0.17388305
211	0x3e97fe1a	0.29686052
212	0x3e3bfb93	0.18357687
213	0x3d88d7f4	0.06681815
214	0x3f0456e9	0.51695114
215	0x3e90f92d	0.28315106
216	0x3e33587f	0.17514227
217	0x3e9ef91e	0.31049436
218	0x3e38a7e4	0.18032795
219	0x3ec64322	0.38723093
220	0x3eba501f	0.36389253
221	0x3d4550bc	0.048172697
222	0x3e906351	0.28200772
223	0x3ee3fcb8	0.44528747
224	0x3ed5d20a	0.4176181
225	0x3e615a75	0.22007163
226	0x3eb68d29	0.35654572
227	0x3e5f608a	0.2181417
228	0x3dbef82a	0.09324677
229	0x3e6c9006	0.23101816
230	0x3e9e9945	0.3097631
231	0x3e98d6c6	0.2985136
232	0x3dc65979	0.09685034
233	0x3cda8137	0.026672943
234	0x3e5e6c0b	0.21720903
235	0x3ebbf4ee	0.36710304
236	0x3ebe8acc	0.3721527
237	0x3d8e84bc	0.06958911
238	0x3cc80c7b	0.024420014
239	0x3e899380	0.26870346
240	0x3ea6024f	0.32423636
241	0x3e5ee56b	0.21767204
242	0x3e895ea8	0.2683003
243	0x3e13a772	0.14419344
244	0x3f1742a4	0.5908606
245	0x3eaff347	0.34365293
246	0x3e67fa1c	0.22654003
247	0x3e8822e7	0.26589128
248	0x3e4ff2ac	0.20307416
249	0x3e08887e	0.13333318
250	0x3e52c03e	0.20581147
251	0x3e0ee1ad	0.13953276
252	0x3e912626	0.28349417
253	0x3e4d898a	0.20071998
254	0x3f189b29	0.59611756
255	0x3e920dc2	0.2852612

lstm.weight_ih_l1 f4 [256, 64]
0	0xbed2d9be	-0.4118175
1	0x3ea71374	0.3263203
2	0x3e835c11	0.2565618
3	0xbeb0e2a5	-0.34547916
4	0x3df72e68	0.12069398
5	0xbe0a0657	-0.13478981
6	0xbaa49832	-0.0012557565
7	0xbe95df16	-0.29271764
8	0x3eaecceb	0.34140715
9	0x3dce9110	0.10086262
10	0xbe4fae75	-0.20281394
11	0xbdea0a9e	-0.11427806
12	0x3f0aae03	0.5417177
13	0xbd581d7a	-0.052762486
14	0x3e903644	0.281664
15	0xbd6e1ca4	-0.058132783
16	0x3e988454	0.29788458
17	0xbe221f68	-0.15832293
18	0x3e9e256b	0.30887923
19	0xbed08f65	-0.407344
20	0x3ea7126c	0.32631242
21	0xbef676f0	-0.48137617
22	0xbe7bba08	-0.24582684
23	0xbdb96a80	-0.090535164
24	0x3e28eb62	0.16496041
25	0xbbf21373	-0.0073875724
26	0x3e0a734e	0.13520548
27	0x3da7cfe8	0.08193952
28	0xbe4d4bc8	-0.2004844
29	0xbec32b2b	-0.38118872
30	0x3e1890b7	0.14898954
31	0xbe95a7c3	-0.29229555
32	0x3dd67355	0.104712166
33	0xbf1107ff	-0.56652826
34	0xbd4202f7	-0.04736611
35	0xbef1bfe9	-0.47216728
36	0x3e1c5af7	0.15269075
37	0xbe926438	-0.28592086
38	0x3e2c3198	0.16815794
39	0xbeeebac0	-0.46626854
40	0x3dd8a434	0.10578194
41	0x3eed0401	0.46292117
42	0x3ea333f6	0.3187558
43	0xbdddf0a7	-0.108369164
44	0x3eea1b0e	0.45723766
45	0x3e8b23bf	0.2717571
46	0xbe848b34	-0.25887454
47	0x3f1edf38	0.62059355
48	0xbe19b09e	-0.1500878
49	0x3e8adec2	0.27123076
50	0xbe92b866	-0.2865631
51	0x3eb7973e	0.35857576
52	0xbee29e59	-0.44261435
53	0xbeb98d8d	-0.36240807
54	0x3e56e46f	0.20985578
55	0xbe1c4204	-0.15259558
56	0x3ed1dd65	0.40989223
57	0x3e88a7be	0.26690477
58	0x3f40b829	0.75281006
59	0x3ed72fcb	0.4202865
60	0xbd11ecf6	-0.035626374
61	0xbdec0574	-0.115244776
62	0xbe8e1e73	-0.27757606
63	0x3d3fd085	0.04682972
64	0xbeaab48f	-0.3334088
65	0x3e63c5d8	0.2224344
66	0x3e0f176e	0.13973781
67	0xbe73519d	-0.23761602
68	0x3db43cfb	0.088006936
69	0xbd709543	-0.058736097
70	0xbdc2b35c	-0.09506866
71	0xbe811311	-0.2520986
72	0x3e93f9ab	0.2890142
73	0x3d94f6a2	0.07273604
74	0xbdea8399	-0.114508815
75	0x3dc2ea24	0.09517315
76	0x3ed2885b	0.41119656
77	0xbd06db80	-0.032924175
78	0x3e73f802	0.23825076
79	0xbdd4d9d5	-0.10393111
80	0x3e97d902	0.2965775
81	0xbe8a6595	-0.27030626
82	0x3e221f0a	0.15832153
83	0xbede34d2	-0.43399674
84	0x3e16245b	0.14662306
85	0xbe4f7e45	-0.20263012
86	0xbe655c08	-0.22398388
87	0xbe1d7220	-0.15375566
88	0x3dda3491	0.106545575
89	0xbe240092	-0.16015843
90	0x3da2c517	0.07947748
91	0xbd90079e	-0.07032703
92	0xbcb7ef86	-0.02245308
93	0xbe917fe2	-0.2841788
94	0x3e6355a9	0.22200646
95	0xbe2188d7	-0.15774857
96	0xbcbf7fc9	-0.023376362
97	0xbf228898	-0.63489676
98	0xbe494d11	-0.19658305
99	0xbec1166e	-0.37712425
100	0x3d8a5a05	0.06755451
101	0xbe8b3aa7	-0.27193186
102	0x3eaa1fee	0.33227485
103	0xbe155b04	-0.14585501
104	0x3e3aaad5	0.1822923
105	0x3e97b3a1	0.29629233
106	0x3e1f10e2	0.15533784
107	0xbe11bc40	-0.14231968
108	0x3ee19e96	0.44066304
109	0x3e2dd07f	0.16974066
110	0xbe32dbdc	-0.17466682
111	0x3ee4e187	0.44703314
112	0xbc52bb7f	-0.012862085
113	0x3e8439e7	0.25825426
114	0xbebadad0	-0.36495066
115	0x3eaa71a1	0.33289817
116	0xbe8f668a	-0.2800792
117	0xbe394028	-0.1809088
118	0x3e512bec	0.20426911
119	0xbcf1badb	-0.029508045
120	0x3ea9118e	0.33021206
121	0x3e80acd1	0.25131848
122	0x3f040173	0.5156471
123	0x3ebf6052	0.37378174
124	0x3dff7afb	0.124746285
125	0x3c99044c	0.018678807
126	0xbdc372a0	-0.09543347
127	0x3db7f23e	0.08981751
128	0xbecec4eb	-0.4038461
129	0x3ed21000	0.41027832
130	0x3e606728	0.21914351
131	0xbe814be1	-0.25253204
132	0x3e6426b4	0.22280389
133	0xbdc30833	-0.09523048
134	0xbd65b58a	-0.056081332
135	0xbeb3e34d	-0.35134354
136	0x3efa95d5	0.48942438
137	0x3df03a4c	0.11729869
138	0xbee6561c	-0.4498757
139	0xbe07cf6e	-0.13262722
140	0x3ec22560	0.3791914
141	0xbd673a62	-0.056452163
142	0x3e8892cf	0.26674506
143	0x3e028ebf	0.12749766
144	0x3e123cb1	0.14280964
145	0xbe2d2f52	-0.16912583
146	0x3d8e5278	0.069493234
147	0xbeabaf59	-0.33532217
148	0x3e883b04	0.26607525
149	0xbe95a2af	-0.2922568
150	0xbeabfdbc	-0.3359202
151	0xbe724238	-0.23658073
152	0x3e1edea5	0.1551462
153	0xbe3cb83d	-0.18429656
154	0xbda029a3	-0.078204416
155	0x3ba5bbf6	0.005057807
156	0xbd8c2821	-0.068435915
157	0xbecbf6ca	-0.39836723
158	0x3b0b3706	0.0021242513
159	0xbebe059e	-0.3711366
160	0x3e674254	0.22583896
161	0xbf385d27	-0.7201714
162	0x3c7e6dc1	0.015529097
163	0xbedff031	-0.4373794
164	0x3be78ece	0.007066584
165	0xbdc268ae	-0.09492622
166	0x3e48d411	0.19612147
167	0xbedc59ff	-0.43037412
168	0x3e7f1680	0.24910927
169	0x3eade7ff	0.3396606
170	0x3e404384	0.18775755
171	0xbe5d06ea	-0.21584669
172	0x3efa9813	0.48944148
173	0x3e4eb38e	0.20185682
174	0xbe97007f	-0.29492566
175	0x3eeb965c	0.46013153
176	0xbe08704d	-0.1332409
177	0x3e84b457	0.25918838
178	0xbed90883	-0.42389306
179	0x3e946572	0.28983647
180	0xbeef8d83	-0.46787652
181	0xbe967152	-0.29383332
182	0x3e84566b	0.25847182
183	0xbe1e424c	-0.15454978
184	0x3ec6cfb6	0.38830346
185	0x3e9d8998	0.30769038
186	0x3f0c90d2	0.5490848
187	0x3ee4e8fd	0.44709006
188	0x3e0c19cb	0.13681714
189	0xbe148e54	-0.14507419
190	0xbeb8f6d9	-0.3612583
191	0x3ca31435	0.019907096
192	0xbec57e5a	-0.3857296
193	0x3eae7829	0.3407605
194	0x3d4c1278	0.0498223
195	0xbea1ff17	-0.3163993
196	0xbbfe6a4f	-0.007764138
197	0xbce0734e	-0.027398732
198	0xbd588a63	-0.05286635
199	0xbe790078	-0.24316585
200	0x3ee7f72c	0.45305765
201	0x3e918ce4	0.28427804
202	0xbe8fa662	-0.28056628
203	0x3d3d0a80	0.04615259
204	0x3ea5ef83	0.32409295
205	0xbdc51668	-0.09623414
206	0x3e7cbd7b	0.24681656
207	0x3e04b824	0.12960869
208	0x3dc9c05d	0.098511435
209	0xbe98b326	-0.2982418
210	0x3db95d41	0.0905099
211	0xbeeabce8	-0.4584725
212	0x3e917b55	0.28414407
213	0xbecbd9ed	-0.39814702
214	0xbe88f11d	-0.26746455
215	0xbe529d7a	-0.20567885
216	0x3e40fc0e	0.18846151
217	0xbe0f0667	-0.13967286
218	0x3d9e8b40	0.077414036
219	0xbd0328f0	-0.032021463
220	0x3b215d23	0.0024622164
221	0xbf04b5a4	-0.5183966
222	0x3df8e963	0.1215389
223	0xbe76af50	-0.24090314
224	0x3e8b7320	0.2723627
225	0xbf1aa2e1	-0.60404783
226	0x3cb0b419	0.021570252
227	0xbea2b377	-0.31777546
228	0x3dd9276c	0.10603222
229	0xbe2cc198	-0.16870725
230	0x3e43e479	0.19130124
231	0xbe8f5dbf	-0.2800121
232	0x3e5cd71e	0.21566436
233	0x3ec7f6c5	0.39055458
234	0x3e749df2	0.23888376
235	0xbe05f545	-0.13081844
236	0x3f13e80e	0.5777596
237	0x3df2bb7c	0.11852166
238	0xbe29c43d	-0.16578765
239	0x3f0e690e	0.5562905
240	0xbe5019ce	-0.20322344
241	0x3e735e07	0.23766337
242	0xbebeb6ad	-0.37248746
243	0x3eaabeb3	0.33348617
244	0xbece9ade	-0.4035253
245	0xbe881294	-0.26576674
246	0x3e8ee67a	0.27910215
247	0x3d38c52a	0.045109905
248	0x3eeac6d0	0.45854807
249	0x3ea38757	0.31939194
250	0x3f189439	0.5960117
251	0x3efee63a	0.49785024
252	0xbd17e64c	-0.037084863
253	0x3d172ad1	0.036906067
254	0xbe768cd0	-0.24077153
255	0x3e2cac4e	0.16862604

lstm.weight_hh_l1 f4 [256, 64]
0	0x3d853940	0.0650506
1	0xbd111db0	-0.035428703
2	0xbdeeea64	-0.116658
3	0x3c913460	0.01772517
4	0x3deca7e8	0.11555463
5	0x3d30142c	0.042987987
6	0x3c5e2fc0	0.013561189
7	0x3ddbe9fc	0.10737988
8	0xbdd50d22	-0.104028955
9	0x3d76c4ac	0.060246155
10	0xbd57730c	-0.05259995
11	0x3d831912	0.06401266
12	0xbd715c8c	-0.05892615
13	0xbdf6bcd6	-0.12047736
14	0x3cc884f0	0.024477452
15	0x3de13e98	0.10998267
16	0x3d93ad90	0.07210839
17	0xbd8bbe68	-0.068234265
18	0x3d8921b2	0.0669588
19	0xbdceedd0	-0.10103953
20	0xbdd69d2e	-0.104791984
21	0x3c682870	0.014169797
22	0xbc9c0108	-0.01904346
23	0x3c07a9d0	0.008280233
24	0xbdcf7bbe	-0.10131024
25	0x3dc0bc16	0.094108745
26	0xbc66c810	-0.014085785
27	0xbd3df264	-0.04637374
28	0x3d64a194	0.055818155
29	0x3bcb8760	0.0062112063
30	0xbcce97b8	-0.02521883
31	0x3c8e1658	0.017344639
32	0xbda8d2ae	-0.08243309
33	0x3d8ef01a	0.069793895
34	0xbd210a10	-0.039316237
35	0xbd80417a	-0.06262489
36	0x3d32a3f4	0.04361339
37	0xbdd25b3e	-0.10271309
38	0x3dbcdb54	0.09221521
39	0x3d5f90d4	0.05458148
40	0x3d9fd84a	0.07804926
41	0xbd6a74b8	-0.057240218
42	0xbda67f8a	-0.08129795
43	0x3db71840	0.08940172
44	0x3d0d1504	0.03444387
45	0x3cdfe580	0.027331114
46	0x3d3c0dc0	0.04591155
47	0xbdab232c	-0.08356318
48	0x3d3f17ec	0.046653673
49	0x3dd3d496	0.10343282
50	0x3dfbffc8	0.12304646
51	0xbda1aed8	-0.07894677
52	0xbdc2c33c	-0.09509894
53	0xbcae14a0	-0.02125007
54	0x3d41aedc	0.0472859
55	0x3d538900	0.051644325
56	0xbc4b2000	-0.012397766
57	0x3c1c2060	0.009529203
58	0x3d878f86	0.06619172
59	0x3d497958	0.049187988
60	0x3d83a2d0	0.064275384
61	0xbddcdeb8	-0.10784668
62	0xbdcb3982	-0.09923078
63	0xbc7f4f80	-0.015582919
64	0xbd8b3826	-0.06797819
65	0xbc32a1a0	-0.010902792
66	0x3db43d84	0.08800796
67	0xbd2d65bc	-0.04233335
68	0x3db902dc	0.090337485
69	0xbdedbb92	-0.11608042
70	0x3dfe0926	0.12404089
71	0xbd3a5d70	-0.045499265
72	0x3c94ffc0	0.018188357
73	0x3d959c04	0.07305148
74	0xbdd96636	-0.10615198
75	0xbd9a4ca4	-0.07534149
76	0xbde842a0	-0.11340833
77	0xbc267490	-0.010159627
78	0x3df5f030	0.12008703
79	0xbdf6350a	-0.12021835
80	0x3d2ba470	0.041904867
81	0x3df5ccda	0.12001963
82	0xbd9f1aa8	-0.07768756
83	0x3ce1b478	0.027551875
84	0xbb2f9540	-0.002679184
85	0xbd0d3954	-0.0344785
86	0x3df201ca	0.118167475
87	0xbdb8612c	-0.09002909
88	0xbb7db840	-0.0038714558
89	0x3d5c1b68	0.053737074
90	0xba784700	-0.0009471029
91	0x3dff1ad8	0.12456292
92	0xbdf69690	-0.12040436
93	0x3dbc4fe6	0.09194927
94	0x3c111180	0.00885427
95	0x3ca3abd8	0.019979402
96	0x3db2d388	0.08731753
97	0xbd8adfa4	-0.06780937
98	0x3cba26c0	0.022723556
99	0xbd9534a2	-0.072854295
100	0x3de35f7c	0.111021966
101	0xbd80aac0	-0.06282568
102	0x3c448040	0.011993468
103	0x3d5dfb78	0.054194897
104	0xbd00d5b8	-0.031453818
105	0xbdcbc8aa	-0.09950383
106	0x3d0d85e8	0.03455153
107	0x3d991d44	0.07476285
108	0xbdc51190	-0.096224904
109	0xbdda8344	-0.10669568
110	0x3cf0e9a0	0.029408276
111	0xbdb86c4e	-0.090050325
112	0xbdfc7e52	-0.12328781
113	0x3dbd5cda	0.09246226
114	0xbd8534e4	-0.06504229
115	0xbdbfb7ca	-0.09361227
116	0xbb5def40	-0.0033864528
117	0x3dd9ff92	0.10644449
118	0x3dcf06d4	0.10108724
119	0xbd45ac98	-0.0482603
120	0xbd29b964	-0.041436568
121	0xbde9980e	-0.11405955
122	0xbd9d76fa	-0.076887086
123	0xbd07b8d4	-0.03313525
124	0xbd9954c2	-0.074868694
125	0x3da3bb38	0.079946935
126	0xbd3ade6c	-0.045622274
127	0x3dd74f62	0.10513188
128	0x3db9e23c	0.09076354
129	0xbc50ace0	-0.012736529
130	0x3db705cc	0.089366525
131	0x3bcc78a0	0.0062399656
132	0x3c74afd0	0.014934495
133	0x3bf0db80	0.007350385
134	0x3d13eef8	0.03611657
135	0x3cd05460	0.025430858
136	0xbdf3bcfe	-0.11901282
137	0xbda1b746	-0.07896285
138	0xbdd476a6	-0.10374193
139	0xbcbed810	-0.023296386
140	0x3db21310	0.08695042
141	0x3d7174fc	0.058949456
142	0x3dfeee38	0.1244778
143	0xbd5b277c	-0.053504452
144	0x3d87ea7a	0.0663652
145	0xbcad5e78	-0.02116321
146	0xbceaebc8	-0.028676882
147	0xbd789210	-0.06068617
148	0xbd2376bc	-0.039908156
149	0xbd344838	-0.044014186
150	0xbda2527a	-0.079258874
151	0xbd8b056c	-0.067881435
152	0x3d267a9c	0.040644273
153	0x3d51ef88	0.051253825
154	0x3cbbd6c8	0.022929564
155	0x3dc8b7ba	0.09800668
156	0x3db02c60	0.08602214
157	0xbd1a82c8	-0.03772238
158	0xbd2611cc	-0.040544316
159	0xbd41eda0	-0.047345757
160	0xbdf028f2	-0.1172656
161	0x3d9a1854	0.075241715
162	0x3d3d8bfc	0.046276078
163	0x3d35aa40	0.044351816
164	0xbde6abee	-0.11263262
165	0x3d1c7d18	0.038205236
166	0xbdf019e6	-0.1172369
167	0xbd0cef04	-0.03440763
168	0x3b1f8740	0.002434209
169	0xbde635d8	-0.11240739
170	0xbdb80f9c	-0.08987352
171	0x3d26a328	0.04068294
172	0xbd46e5a0	-0.04855883
173	0x3dec7f4e	0.11547719
174	0xbdf8f84c	-0.12156734
175	0xbdcb7e96	-0.09936254
176	0x3df5e9bc	0.12007472
177	0xbcde37c0	-0.027126193
178	0xbcb62708	-0.022235408
179	0x3ccbdf10	0.024886638
180	0xbd38237c	-0.044955716
181	0xbd142e38	-0.03617689
182	0xbdf47f86	-0.11938386
183	0x3d4e1b44	0.05031897
184	0x3dd25fd2	0.102721825
185	0xbd6fde68	-0.058561713
186	0xbd8332a0	-0.0640614
187	0x3cdbda00	0.026837349
188	0xbdf9f26a	-0.1220444
189	0x3d9b37a8	0.07578975
190	0xbde5267c	-0.11188981
191	0x3dfff5a6	0.124980256
192	0xbcc783c8	-0.02435483
193	0x3c0ac700	0.008470297
194	0x3c3f1610	0.011662975
195	0xbdfe0e0c	-0.12405023
196	0xbb6fcdc0	-0.0036591142
197	0x3ce88700	0.028384686
198	0xbda9fac2	-0.082997814
199	0xbd9d17fa	-0.07670589
200	0x3d91b8da	0.07115336
201	0xbdadf8c0	-0.08494711
202	0xbc5c6080	-0.013450742
203	0xbdd07140	-0.10177851
204	0xbdf45878	-0.119309366
205	0x3df1074e	0.117689714
206	0x3b0a2780	0.0021080673
207	0xbdb8fc9e	-0.09032558
208	0x3d35015c	0.04419075
209	0x3dbdd3be	0.09268902
210	0x3dbf40d0	0.09338534
211	0xbc7c10c0	-0.015384853
212	0xbca20880	-0.019779444
213	0x3cfa8460	0.0305807
214	0xbcd9aa60	-0.026570499
215	0x3db10e70	0.08645332
216	0xbdfc1d12	-0.12310232
217	0x3df90e00	0.121608734
218	0x3d1e7ac0	0.038691282
219	0xbd06e1e0	-0.032930255
220	0xbd9b922a	-0.07596238
221	0xbda2157a	-0.079142526
222	0x3c96b9e8	0.018399194
223	0xbd38d8ac	-0.04512851
224	0xbd56eb10	-0.052470267
225	0x3df5017a	0.11963172
226	0x3d2cbf8c	0.04217486
227	0x3dd881fc	0.105716676
228	0x3d23786c	0.039909765
229	0x3c9e93a8	0.019357517
230	0xbcb80550	-0.02246347
231	0x3dbc56d2	0.09196247
232	0x3d4c26a4	0.049841538
233	0xbc95eb58	-0.018300697
234	0xbd6c1850	-0.057640374
235	0x3d077c64	0.033077613
236	0xbd41d828	-0.047325283
237	0x3d4c9b70	0.049952924
238	0xbc892658	-0.016741917
239	0xbd812d66	-0.06307487
240	0xbd4279b8	-0.04747936
241	0xbaf88b80	-0.0018962473
242	0xbd08fd08	-0.033444434
243	0xbdfd4854	-0.12367311
244	0xbcf63bb8	-0.030057773
245	0xbddf24dc	-0.10895702
246	0x3d82d568	0.0638836
247	0x3d567d60	0.05236566
248	0x3dde0566	0.108408734
249	0x3dc67b78	0.096915185
250	0x3ceb9b90	0.028760701
251	0x3d2796b8	0.04091522
252	0xbceedff8	-0.029159531
253	0x3cf20eb0	0.02954802
254	0x3cb17c80	0.021665812
255	0xbd9f827a	-0.07788558

lstm.bias_ih_l1 f4 [256]
0	0x3de8e477	0.11371701
1	0x3d4f3d26	0.050595425
2	0x3e0415d3	0.1289895
3	0x3dc59934	0.09648362
4	0x3e20a152	0.15686539
5	0x3e58896a	0.2114617
6	0x3d72900e	0.059219413
7	0x3d95754e	0.07297765
8	0x3e68e522	0.22743657
9	0x3e58b064	0.21161038
10	0x3e0560c3	0.13025193
11	0x3d69ba7c	0.05706261
12	0x3e3ab673	0.18233661
13	0x3e52583f	0.20541476
14	0x3dbee325	0.09320668
15	0x3e154b7d	0.14579578
16	0x3dfed01f	0.1244204
17	0x3e9ec018	0.3100593
18	0x3e63388a	0.22189537
19	0x3dcce5a5	0.10004739
20	0x3ea3d952	0.3200174
21	0x3e24711b	0.16058771
22	0x3e6aed66	0.22942123
23	0x3e23fe0b	0.16014878
24	0x3e3e07e1	0.18557693
25	0x3e1f76c1	0.15572645
26	0x3e937cfa	0.28806287
27	0x3df54387	0.119757704
28	0x3e52306f	0.20526288
29	0x3cda9cb9	0.02668606
30	0x3eaa982a	0.33319217
31	0x3e74c720	0.23904085
32	0x3e9e9203	0.30970773
33	0x3e9f9c48	0.3117392
34	0x3d16ca42	0.03681398
35	0x3e3b5fee	0.18298313
36	0x3e11c4df	0.14235257
37	0x3e4115b6	0.18855938
38	0x3e42c16c	0.19019097
39	0x3df0b7f4	0.11753836
40	0x3e14c0d1	0.14526679
41	0xbcad1002	-0.021125797
42	0x3d27d834	0.04097767
43	0x3e5158e7	0.2044407
44	0x3e439f47	0.19103728
45	0x3e21086a	0.15725866
46	0x3d825a7d	0.063649155
47	0x3c90acc7	0.017660512
48	0x3e056b7e	0.13029286
49	0x3e44ebd3	0.19230585
50	0x3e28f84d	0.16500969
51	0x3e774bd3	0.24150018
52	0x3e9405d2	0.2891069
53	0x3ea4d572	0.32194096
54	0x3e8d2d2a	0.2757352
55	0x3e1ff3d8	0.15620363
56	0x3e530756	0.20608267
57	0x3e444c15	0.19169648
58	0x3da5cc0c	0.080955595
59	0x3e4494ed	0.19197436
60	0x3e610f39	0.21978463
61	0x3e99979d	0.29998484
62	0x3e1efa47	0.1552516
63	0x3da96e0b	0.08272942
64	0x3c8f67d0	0.017505556
65	0x3dd7ab16	0.10530679
66	0x3d3fa664	0.04678954
67	0x3da16ef6	0.07882492
68	0xbd0b5a98	-0.034021944
69	0xbd1f0bfc	-0.03882979
70	0x3c9d2150	0.019180924
71	0xbc14b920	-0.00907734
72	0xbdc381b2	-0.09546222
73	0x3d32d430	0.04365939
74	0x3dd56284	0.10419181
75	0x3c7b6b50	0.0153454095
76	0x3c3c2610	0.011483684
77	0xbdb41ca2	-0.08794524
78	0x3c532c20	0.012888938
79	0x3dbb760a	0.091533735
80	0x3c881030	0.016609281
81	0xbdccf7e8	-0.10008222
82	0x3ccab430	0.024744123
83	0xbcc09190	-0.02350691
84	0x3c97f810	0.018550903
85	0xbc2e7930	-0.010649011
86	0x3deb3828	0.1148532
87	0x3d86d8d8	0.065843284
88	0xbd6c0d88	-0.057630092
89	0xbd9cd3a8	-0.07657558
90	0x3dc4fd00	0.096185684
91	0xbb52cf00	-0.0032166839
92	0x3daf9ff0	0.085754275
93	0x3dcd9592	0.10038294
94	0x3c37c9b0	0.01121752
95	0x3de9b112	0.114107266
96	0x3d3061b4	0.043061927
97	0xbd5ff7f4	-0.054679826
98	0x3dc46888	0.0959025
99	0xbd9e79c8	-0.07738072
100	0xbcad3018	-0.021141097
101	0xbdee68ae	-0.1164106
102	0xbddfa9a2	-0.10921027
103	0x3d8d11f2	0.068881884
104	0x3c799030	0.015232131
105	0x3dba95a8	0.09110576
106	0xbd95925e	-0.07303308
107	0xbbd85720	-0.006602183
108	0x3ca3a758	0.019977257
109	0xbdbda048	-0.09259087
110	0xbd726eb4	-0.059187606
111	0xbdd039a6	-0.101672456
112	0x3d9b4fc2	0.07583572
113	0xbc7a1a40	-0.015265048
114	0x3dca8cc2	0.09890129
115	0xbd04963c	-0.032369837
116	0x3d715e40	0.058927774
117	0x3d3d2630	0.046178997
118	0xbc275d70	-0.010215148
119	0xbda70a68	-0.08156282
120	0xbde93818	-0.11387652
121	0x3cff3440	0.031152844
122	0xbccaba30	-0.024746984
123	0xbd0eddac	-0.03487937
124	0xbdb6c6c6	-0.08924632
125	0xbdb0d69e	-0.08634685
126	0x3d964250	0.07336867
127	0x3d3e75d4	0.04649909
128	0x3c4f757f	0.012662291
129	0x3d7aa202	0.06118966
130	0x3becfbf3	0.007232183
131	0xbd297f42	-0.041381128
132	0x3d25e73f	0.040503737
133	0x3e212b03	0.15739064
134	0x3e12d416	0.14338717
135	0xbd86f37f	-0.06589412
136	0x3d7503e2	0.059818156
137	0xbddae46b	-0.106880985
138	0xbdbcc3d1	-0.092170365
139	0xbdce9aa1	-0.10088087
140	0xbd02c30c	-0.031924292
141	0xbd21feca	-0.039549626
142	0x3dc11c43	0.094292186
143	0xbe046125	-0.12927683
144	0x3d5805a9	0.052739773
145	0xbd91afbb	-0.07113596
146	0x3c2a815d	0.010406819
147	0x3dbd3b9c	0.09239885
148	0xbcfb5930	-0.030682176
149	0xbcba5489	-0.022745388
150	0x3da8e3e4	0.08246592
151	0xbc369e2f	-0.011146112
152	0xbde917c8	-0.11381489
153	0xbe074515	-0.13209946
154	0xbe09637b	-0.13416855
155	0x3dcc1b91	0.099661954
156	0x3d4c0e93	0.049818587
157	0xbda23b99	-0.079215236
158	0x3e1c6dbf	0.1527624
159	0x3cf1ebc2	0.029531363
160	0x3d8ead62	0.06966664
161	0x3d0a86ea	0.03382007
162	0x3db25911	0.08708394
163	0xbb844b36	-0.004037286
164	0xbdac44e8	-0.0841158
165	0xbd7cfcef	-0.061764654
166	0x3db88f5c	0.09011719
167	0x3e271ce0	0.16319609
168	0xbccbb3f0	-0.024866074
169	0xbdcaaa96	-0.09895818
170	0xbe0ab9c4	-0.13547426
171	0xbc806b70	-0.01567623
172	0x3c812555	0.015764872
173	0x3c97804c	0.018493794
174	0xbde4b232	-0.111668006
175	0x3c293f74	0.01033007
176	0xbd88016d	-0.06640897
177	0xbe0c9d5b	-0.13731901
178	0xbdc9036b	-0.09815105
179	0xbd865b40	-0.06560373
180	0x3dcd6bb8	0.10030311
181	0x3c48beee	0.012252552
182	0xbda9d497	-0.082925014
183	0x3d40c352	0.047061272
184	0xbd9b1329	-0.07572014
185	0x3d518fa4	0.051162377
186	0x3d1c8910	0.03821665
187	0xbd2563f9	-0.040378544
188	0xbcb6a19c	-0.022293858
189	0xbb985bcd	-0.0046496154
190	0xbdf32aab	-0.11873373
191	0x3d87548b	0.06607922
192	0x3ea1c430	0.31594992
193	0x3e54f520	0.20796633
194	0x3e8fca0d	0.2808384
195	0x3e91f4ef	0.28507182
196	0x3e5b788a	0.21432701
197	0x3e7de6c9	0.24795069
198	0x3d952fb3	0.072844885
199	0x3e52f28b	0.20600335
200	0x3e9dbcc2	0.30808073
201	0x3e827c78	0.25485587
202	0x3dea66d1	0.11445392
203	0x3e89a502	0.26883703
204	0x3ea273c9	0.31728962
205	0x3ea83586	0.32853335
206	0x3d377f86	0.04479935
207	0x3e02280e	0.12710592
208	0xbdd1d7e8	-0.10246259
209	0x3e7a0268	0.2441498
210	0x3e4d9b1c	0.20078701
211	0x3d2f2788	0.04276231
212	0x3e681460	0.22664022
213	0x3dc3b50b	0.095560156
214	0x3e10d4d8	0.14143693
215	0x3e096a3f	0.13419436
216	0x3dff3305	0.12460903
217	0x3e0d22fa	0.13782874
218	0x3e2d1c00	0.16905212
219	0x3e39ac04	0.18132025
220	0x3e2f2e38	0.17107475
221	0x3e48c562	0.19606546
222	0x3ea8a791	0.32940343
223	0x3d8101a1	0.06299139
224	0x3e6a52ea	0.22883192
225	0x3e65b011	0.22430445
226	0x3e6af883	0.22946362
227	0x3e183d4e	0.14867136
228	0x3e7e65ba	0.24843493
229	0x3dfab82e	0.12242161
230	0x3e2aa2ec	0.16663712
231	0x3e40a0fe	0.18811414
232	0x3d3487b9	0.044074748
233	0x3e63118a	0.2217466
234	0x3dbd6089	0.09246928
235	0x3e1e31b9	0.15448655
236	0x3e7471db	0.23871557
237	0x3e85607e	0.2605018
238	0x3e3d5580	0.18489647
239	0x3e668d51	0.22514845
240	0x3e970604	0.29496777
241	0x3e711a46	0.23545179
242	0x3d964b59	0.0733859
243	0x3e0c663a	0.13710871
244	0x3dd54151	0.10412849
245	0x3e2c5c1e	0.16832015
246	0x3dbce92c	0.092241615
247	0x3d0fca29	0.035104904
248	0x3dd43267	0.10361176
249	0x3e92053f	0.28519627
250	0x3d9a63cb	0.07538565
251	0x3da4d033	0.08047523
252	0x3e515c66	0.20445403
253	0x3e9214ed	0.2853159
254	0x3e4e4634	0.20143968
255	0x3e43ee42	0.19133857
